…
//localhost:8080/"},"id":"7XFxnA6YvuDM","executionInfo":{"status":"ok","timestamp":1711867790922,"user_tz":-300,"elapsed":33583,"user":{"displayName":"Andrey Sokolov","userId":"00506076773780018870"}},"outputId":"c54ef21f-9619-421f-de89-a323594a9c0e"},"execution_count":null,"outputs":[{"output_type":"stream","name":"stdout","text":["Model: \"sequential\"\n","_________________________________________________________________\n"," Layer (type)                Output Shape              Param #   \n","=================================================================\n"," embedding (Embedding)       (None, 300, 32)           3200000   \n","                                                                 \n"," conv1d (Conv1D)             (None, 295, 350)          67550     \n","                                                                 \n"," global_max_pooling1d (Glob  (None, 350)               0         \n"," alMaxPooling1D)                                                 \n","                                                                 \n"," dense (Dense)               (None, 512)               179712    \n","                                                                 \n"," dense_1 (Dense)             (None, 5)                 2565      \n","                                                                 \n","=================================================================\n","Total params: 3449827 (13.16 MB)\n","Trainable params: 3449827 (13.16 MB)\n","Non-trainable params: 0 (0.00 Byte)\n","_________________________________________________________________\n","3/3 [==============================] - 1s 49ms/step - loss: 0.8871 - accuracy: 0.7093\n","\n","Model: \"sequential\"\n","_________________________________________________________________\n"," Layer (type)                Output Shape              Param #   \n","=================================================================\n"," embedding (Embedding)       (None, 300, 32)           3200000   \n","                                                                 \n"," conv1d (Conv1D)             (None, 294, 300)          67500     \n","                                                                 \n"," global_max_pooling1d (Glob  (None, 300)               0         \n"," alMaxPooling1D)                                                 \n","                                                                 \n"," dense (Dense)               (None, 512)               154112    \n","                                                                 \n"," dense_1 (Dense)             (None, 5)                 2565      \n","                                                                 \n","=================================================================\n","Total params: 3424177 (13.06 MB)\n","Trainable params: 3424177 (13.06 MB)\n","Non-trainable params: 0 (0.00 Byte)\n","_________________________________________________________________\n","3/3 [==============================] - 0s 54ms/step - loss: 0.9348 - accuracy: 0.5930\n","\n","Model: \"sequential\"\n","_________________________________________________________________\n"," Layer (type)                Output Shape              Param #   \n","=================================================================\n"," embedding (Embedding)       (None, 300, 32)           3200000   \n","                                                                 \n"," conv1d (Conv1D)             (None, 293, 400)          102800    \n","                                                                 \n"," global_max_pooling1d (Glob  (None, 400)               0         \n"," alMaxPooling1D)                                                 \n","                                                                 \n"," dense (Dense)               (None, 448)               179648    \n","                                                                 \n"," dense_1 (Dense)             (None, 5)                 2245      \n","                                                                 \n","=================================================================\n","Total params: 3484693 (13.29 MB)\n","Trainable params: 3484693 (13.29 MB)\n","Non-trainable params: 0 (0.00 Byte)\n","_________________________________________________________________\n","3/3 [==============================] - 1s 53ms/step - loss: 1.0212 - accuracy: 0.5698\n","\n","Model: \"sequential\"\n","_________________________________________________________________\n"," Layer (type)                Output Shape              Param #   \n","=================================================================\n"," embedding (Embedding)       (None, 300, 32)           3200000   \n","                                                                 \n"," conv1d (Conv1D)             (None, 294, 400)          90000     \n","                                                                 \n"," global_max_pooling1d (Glob  (None, 400)               0         \n"," alMaxPooling1D)                                                 \n","                                                                 \n"," dense (Dense)               (None, 448)               179648    \n","                                                                 \n"," dense_1 (Dense)             (None, 5)                 2245      \n","                                                                 \n","=================================================================\n","Total params: 3471893 (13.24 MB)\n","Trainable params: 3471893 (13.24 MB)\n","Non-trainable params: 0 (0.00 Byte)\n","_________________________________________________________________\n","3/3 [==============================] - 1s 50ms/step - loss: 1.0043 - accuracy: 0.5698\n","\n","Model: \"sequential\"\n","_________________________________________________________________\n"," Layer (type)                Output Shape              Param #   \n","=================================================================\n"," embedding (Embedding)       (None, 300, 28)           2800000   \n","                                                                 \n"," conv1d (Conv1D)             (None, 293, 400)          90000     \n","                                                                 \n"," global_max_pooling1d (Glob  (None, 400)               0         \n"," alMaxPooling1D)                                                 \n","                                                                 \n"," dense (Dense)               (None, 416)               166816    \n","                                                                 \n"," dense_1 (Dense)             (None, 5)                 2085      \n","                                                                 \n","=================================================================\n","Total params: 3058901 (11.67 MB)\n","Trainable params: 3058901 (11.67 MB)\n","Non-trainable params: 0 (0.00 Byte)\n","_________________________________________________________________\n"]},{"output_type":"stream","name":"stderr","text":["WARNING:ten
…
cessary retracing. For (3), please refer to https://www.tensorflow.org/guide/function#controlling_retracing and https://www.tensorflow.org/api_docs/python/tf/function for  more details.\n"]},{"output_type":"stream","name":"stdout","text":["3/3 [==============================] - 1s 50ms/step - loss: 0.9047 - accuracy: 0.6628\n","\n","Model: \"sequential\"\n","_________________________________________________________________\n"," Layer (type)                Output Shape              Param #   \n","=================================================================\n"," embedding (Embedding)       (None, 300, 32)           3200000   \n","                                                                 \n"," conv1d (Conv1D)             (None, 293, 400)          102800    \n","                                                                 \n"," global_max_pooling1d (Glob  (None, 400)               0         \n"," alMaxPooling1D)                                                 \n","                                                                 \n"," dense (Dense)               (None, 512)               205312    \n","                                                                 \n"," dense_1 (Dense)             (None, 5)                 2565      \n","                                                                 \n","=================================================================\n","Total params: 3510677 (13.39 MB)\n","Trainable params: 3510677 (13.39 MB)\n","Non-trainable params: 0 (0.00 Byte)\n","_________________________________________________________________\n"]},{"output_type":"stream","name":"stderr","text":["WARNING:ten
…
cessary retracing. For (3), please refer to https://www.tensorflow.org/guide/function#controlling_retracing and https://www.tensorflow.org/api_docs/python/tf/function for  more details.\n"]},{"output_type":"stream","name":"stdout","text":["3/3 [==============================] - 0s 37ms/step - loss: 0.9133 - accuracy: 0.6977\n","\n","Model: \"sequential\"\n","_________________________________________________________________\n"," Layer (type)                Output Shape              Param #   \n","=================================================================\n"," embedding (Embedding)       (None, 300, 32)           3200000   \n","                                                                 \n"," conv1d (Conv1D)             (None, 293, 400)          102800    \n","                                                                 \n"," global_max_pooling1d (Glob  (None, 400)               0         \n"," alMaxPooling1D)                                                 \n","                                                                 \n"," dense (Dense)               (None, 480)               192480    \n","                                                                 \n"," dense_1 (Dense)             (None, 5)                 2405      \n","                                                                 \n","=================================================================\n","Total params: 3497685 (13.34 MB)\n","Trainable params: 3497685 (13.34 MB)\n","Non-trainable params: 0 (0.00 Byte)\n","_________________________________________________________________\n","3/3 [==============================] - 0s 33ms/step - loss: 0.9573 - accuracy: 0.7093\n","\n","Model: \"sequential\"\n","_________________________________________________________________\n"," Layer (type)                Output Shape              Param #   \n","=================================================================\n"," embedding (Embedding)       (None, 300, 32)           3200000   \n","                                                                 \n"," conv1d (Conv1D)             (None, 295, 400)          77200     \n","                                                                 \n"," global_max_pooling1d (Glob  (None, 400)               0         \n"," alMaxPooling1D)                                                 \n","                                                                 \n"," dense (Dense)               (None, 448)               179648    \n","                                                                 \n"," dense_1 (Dense)             (None, 5)                 2245      \n","                                                                 \n","=================================================================\n","Total params: 3459093 (13.20 MB)\n","Trainable params: 3459093 (13.20 MB)\n","Non-trainable params: 0 (0.00 Byte)\n","_________________________________________________________________\n","3/3 [==============================] - 0s 29ms/step - loss: 0.8067 - accuracy: 0.7093\n","\n","Model: \"sequential\"\n","_________________________________________________________________\n"," Layer (type)                Output Shape              Param #   \n","=================================================================\n"," embedding (Embedding)       (None, 300, 32)           3200000   \n","                                                                 \n"," conv1d (Conv1D)             (None, 294, 400)          90000     \n","                                                                 \n"," global_max_pooling1d (Glob  (None, 400)               0         \n"," alMaxPooling1D)                                                 \n","                                                                 \n"," dense (Dense)               (None, 448)               179648    \n","                                                                 \n"," dense_1 (Dense)             (None, 5)                 2245      \n","                                                                 \n","=================================================================\n","Total params: 3471893 (13.24 MB)\n","Trainable params: 3471893 (13.24 MB)\n","Non-trainable params: 0 (0.00 Byte)\n","_________________________________________________________________\n","3/3 [==============================] - 0s 30ms/step - loss: 1.0959 - accuracy: 0.4302\n","\n","Model: \"sequential\"\n","_________________________________________________________________\n"," Layer (type)                Output Shape              Param #   \n","=================================================================\n"," embedding (Embedding)       (None, 300, 32)           3200000   \n","                                                                 \n"," conv1d (Conv1D)             (None, 293, 400)          102800    \n","                                                                 \n"," global_max_pooling1d (Glob  (None, 400)               0         \n"," alMaxPooling1D)                                                 \n","                                                                 \n"," dense (Dense)               (None, 512)               205312    \n","                                                                 \n"," dense_1 (Dense)             (None, 5)                 2565      \n","                                                                 \n","=================================================================\n","Total params: 3510677 (13.39 MB)\n","Trainable params: 3510677 (13.39 MB)\n","Non-trainable params: 0 (0.00 Byte)\n","_________________________________________________________________\n","3/3 [==============================] - 0s 32ms/step - loss: 0.9697 - accuracy: 0.5581\n","\n","Model: \"sequential\"\n","_________________________________________________________________\n"," Layer (type)                Output Shape              Param #   \n","=================================================================\n"," embedding (Embedding)       (None, 300, 32)           3200000   \n","                                                                 \n"," conv1d (Conv1D)             (None, 293, 400)          102800    \n","                                                                 \n"," global_max_pooling1d (Glob  (None, 400)               0         \n"," alMaxPooling1D)                                                 \n","                                                                 \n"," dense (Dense)               (None, 512)               205312    \n","                                                                 \n"," dense_1 (Dense)             (None, 5)                 2565      \n","                                                                 \n","=================================================================\n","Total params: 3510677 (13.39 MB)\n","Trainable params: 3510677 (13.39 MB)\n","Non-trainable params: 0 (0.00 Byte)\n","_________________________________________________________________\n","3/3 [==============================] - 0s 39ms/step - loss: 1.0854 - accuracy: 0.4419\n","\n","Model: \"sequential\"\n","_________________________________________________________________\n"," Layer (type)                Output Shape              Param #   \n","=================================================================\n"," embedding (Embedding)       (None, 300, 32)           3200000   \n","                                                                 \n"," conv1d (Conv1D)             (None, 294, 400)          90000     \n","                                                                 \n"," global_max_pooling1d (Glob  (None, 400)               0         \n"," alMaxPooling1D)                                                 \n","                                                                 \n"," dense (Dense)               (None, 448)               179648    \n","                                                                 \n"," dense_1 (Dense)             (None, 5)                 2245      \n","                                                                 \n","=================================================================\n","Total params: 3471893 (13.24 MB)\n","Trainable params: 3471893 (13.24 MB)\n","Non-trainable params: 0 (0.00 Byte)\n","_________________________________________________________________\n","3/3 [==============================] - 0s 29ms/step - loss: 0.9073 - accuracy: 0.7326\n","\n","Model: \"sequential\"\n","_________________________________________________________________\n"," Layer (type)                Output Shape              Param #   \n","=================================================================\n"," embedding (Embedding)       (None, 300, 32)           3200000   \n","                                                                 \n"," conv1d (Conv1D)             (None, 294, 400)          90000     \n","                                                                 \n"," global_max_pooling1d (Glob  (None, 400)               0         \n"," alMaxPooling1D)                                                 \n","                                                                 \n"," dense (Dense)               (None, 448)               179648    \n","                                                                 \n"," dense_1 (Dense)             (None, 5)                 2245      \n","                                                                 \n","=================================================================\n","Total params: 3471893 (13.24 MB)\n","Trainable params: 3471893 (13.24 MB)\n","Non-trainable params: 0 (0.00 Byte)\n","_________________________________________________________________\n","3/3 [==============================] - 0s 31ms/step - loss: 0.8470 - accuracy: 0.7209\n","\n","Model: \"sequential\"\n","_________________________________________________________________\n"," Layer (type)                Output Shape              Param #   \n","=================================================================\n"," embedding (Embedding)       (None, 300, 32)           3200000   \n","                                                                 \n"," conv1d (Conv1D)             (None, 294, 400)          90000     \n","                                                                 \n"," global_max_pooling1d (Glob  (None, 400)               0         \n"," alMaxPooling1D)                                                 \n","                                                                 \n"," dense (Dense)               (None, 448)               179648    \n","                                                                 \n"," dense_1 (Dense)             (None, 5)                 2245      \n","                                                                 \n","=================================================================\n","Total params: 3471893 (13.24 MB)\n","Trainable params: 3471893 (13.24 MB)\n","Non-trainable params: 0 (0.00 Byte)\n","_________________________________________________________________\n","3/3 [==============================] - 0s 29ms/step - loss: 1.0649 - accuracy: 0.4302\n","\n","Model: \"sequential\"\n","_________________________________________________________________\n"," Layer (type)                Output Shape              Param #   \n","=================================================================\n"," embedding (Embedding)       (None, 300, 32)           3200000   \n","                                                                 \n"," conv1d (Conv1D)             (None, 293, 400)          102800    \n","                                                                 \n"," global_max_pooling1d (Glob  (None, 400)               0         \n"," alMaxPooling1D)                                                 \n","                                                                 \n"," dense (Dense)               (None, 480)               192480    \n","                                                                 \n"," dense_1 (Dense)             (None, 5)                 2405      \n","                                                                 \n","=================================================================\n","Total params: 3497685 (13.34 MB)\n","Trainable params: 3497685 (13.34 MB)\n","Non-trainable params: 0 (0.00 Byte)\n","_________________________________________________________________\n","3/3 [==============================] - 0s 32ms/step - loss: 1.1326 - accuracy: 0.4302\n","\n","Model: \"sequential\"\n","_________________________________________________________________\n"," Layer (type)                Output Shape              Param #   \n","=================================================================\n"," embedding (Embedding)       (None, 300, 32)           3200000   \n","                                                                 \n"," conv1d (Conv1D)             (None, 293, 400)          102800    \n","                                                                 \n"," global_max_pooling1d (Glob  (None, 400)               0         \n"," alMaxPooling1D)                                                 \n","                                                                 \n"," dense (Dense)               (None, 512)               205312    \n","                                                                 \n"," dense_1 (Dense)             (None, 5)                 2565      \n","                                                                 \n","=================================================================\n","Total params: 3510677 (13.39 MB)\n","Trainable params: 3510677 (13.39 MB)\n","Non-trainable params: 0 (0.00 Byte)\n","_________________________________________________________________\n","3/3 [==============================] - 0s 32ms/step - loss: 0.8751 - accuracy: 0.7093\n","\n","Model: \"sequential\"\n","_________________________________________________________________\n"," Layer (type)                Output Shape              Param #   \n","=================================================================\n"," embedding (Embedding)       (None, 300, 32)           3200000   \n","                                                                 \n"," conv1d (Conv1D)             (None, 293, 400)          102800    \n","                                                                 \n"," global_max_pooling1d (Glob  (None, 400)               0         \n"," alMaxPooling1D)                                                 \n","                                                                 \n"," dense (Dense)               (None, 512)               205312    \n","                                                                 \n"," dense_1 (Dense)             (None, 5)                 2565      \n","                                                                 \n","=================================================================\n","Total params: 3510677 (13.39 MB)\n","Trainable params: 3510677 (13.39 MB)\n","Non-trainable params: 0 (0.00 Byte)\n","_________________________________________________________________\n","3/3 [==============================] - 0s 32ms/step - loss: 0.9127 - accuracy: 0.7093\n","\n","Model: \"sequential\"\n","_________________________________________________________________\n"," Layer (type)                Output Shape              Param #   \n","=================================================================\n"," embedding (Embedding)       (None, 300, 32)           3200000   \n","                                                                 \n"," conv1d (Conv1D)             (None, 296, 350)          56350     \n","                                                                 \n"," global_max_pooling1d (Glob  (None, 350)               0         \n"," alMaxPooling1D)                                                 \n","                                                                 \n"," dense (Dense)               (None, 480)               168480    \n","                                                                 \n"," dense_1 (Dense)             (None, 5)                 2405      \n","                                                                 \n","=================================================================\n","Total params: 3427235 (13.07 MB)\n","Trainable params: 3427235 (13.07 MB)\n","Non-trainable params: 0 (0.00 Byte)\n","_________________________________________________________________\n","3/3 [==============================] - 0s 23ms/step - loss: 0.7874 - accuracy: 0.7558\n","\n","Model: \"sequential\"\n","_________________________________________________________________\n"," Layer (type)                Output Shape              Param #   \n","=================================================================\n"," embedding (Embedding)       (None, 300, 32)           3200000   \n","                                                                 \n"," conv1d (Conv1D)             (None, 293, 350)          89950     \n","                                                                 \n"," global_max_pooling1d (Glob  (None, 350)               0         \n"," alMaxPooling1D)                                                 \n","                                                                 \n"," dense (Dense)               (None, 512)               179712    \n","                                                                 \n"," dense_1 (Dense)             (None, 5)                 2565      \n","                                                                 \n","=================================================================\n","Total params: 3472227 (13.25 MB)\n","Trainable params: 3472227 (13.25 MB)\n","Non-trainable params: 0 (0.00 Byte)\n","_________________________________________________________________\n","3/3 [==============================] - 0s 29ms/step - loss: 0.8755 - accuracy: 0.7093\n","\n","Model: \"sequential\"\n","_________________________________________________________________\n"," Layer (type)                Output Shape              Param #   \n","=================================================================\n"," embedding (Embedding)       (None, 300, 32)           3200000   \n","                                                                 \n"," conv1d (Conv1D)             (None, 293, 400)          102800    \n","                                                                 \n"," global_max_pooling1d (Glob  (None, 400)               0         \n"," alMaxPooling1D)                                                 \n","                                                                 \n"," dense (Dense)               (None, 512)               205312    \n","                                                                 \n"," dense_1 (Dense)             (None, 5)                 2565      \n","                                                                 \n","=================================================================\n","Total params: 3510677 (13.39 MB)\n","Trainable params: 3510677 (13.39 MB)\n","Non-trainable params: 0 (0.00 Byte)\n","_________________________________________________________________\n","3/3 [==============================] - 0s 33ms/step - loss: 0.9618 - accuracy: 0.5814\n","\n","Model: \"sequential\"\n","_________________________________________________________________\n"," Layer (type)                Output Shape              Param #   \n","=================================================================\n"," embedding (Embedding)       (None, 300, 32)           3200000   \n","                                                                 \n"," conv1d (Conv1D)             (None, 293, 400)          102800    \n","                                                                 \n"," global_max_pooling1d (Glob  (None, 400)               0         \n"," alMaxPooling1D)                                                 \n","                                                                 \n"," dense (Dense)               (None, 512)               205312    \n","                                                                 \n"," dense_1 (Dense)             (None, 5)                 2565      \n","                                                                 \n","=================================================================\n","Total params: 3510677 (13.39 MB)\n","Trainable params: 3510677 (13.39 MB)\n","Non-trainable params: 0 (0.00 Byte)\n","_________________________________________________________________\n","3/3 [==============================] - 0s 35ms/step - loss: 0.9102 - accuracy: 0.7326\n","\n","Model: \"sequential\"\n","_________________________________________________________________\n"," Layer (type)                Output Shape              Param #   \n","=================================================================\n"," embedding (Embedding)       (None, 300, 32)           3200000   \n","                                                                 \n"," conv1d (Conv1D)             (None, 293, 400)          102800    \n","                                                                 \n"," global_max_pooling1d (Glob  (None, 400)               0         \n"," alMaxPooling1D)                                                 \n","                                                                 \n"," dense (Dense)               (None, 512)               205312    \n","                                                                 \n"," dense_1 (Dense)             (None, 5)                 2565      \n","                                                                 \n","=================================================================\n","Total params: 3510677 (13.39 MB)\n","Trainable params: 3510677 (13.39 MB)\n","Non-trainable params: 0 (0.00 Byte)\n","_________________________________________________________________\n","3/3 [==============================] - 0s 34ms/step - loss: 0.9489 - accuracy: 0.6860\n","\n","Model: \"sequential\"\n","_________________________________________________________________\n"," Layer (type)                Output Shape              Param #   \n","=================================================================\n"," embedding (Embedding)       (None, 300, 32)           3200000   \n","                                                                 \n"," conv1d (Conv1D)             (None, 294, 350)          78750     \n","                                                                 \n"," global_max_pooling1d (Glob  (None, 350)               0         \n"," alMaxPooling1D)                                                 \n","                                                                 \n"," dense (Dense)               (None, 512)               179712    \n","                                                                 \n"," dense_1 (Dense)             (None, 5)                 2565      \n","                                                                 \n","=================================================================\n","Total params: 3461027 (13.20 MB)\n","Trainable params: 3461027 (13.20 MB)\n","Non-trainable params: 0 (0.00 Byte)\n","_________________________________________________________________\n","3/3 [==============================] - 0s 28ms/step - loss: 0.8333 - accuracy: 0.7093\n","\n","Model: \"sequential\"\n","_________________________________________________________________\n"," Layer (type)                Output Shape              Param #   \n","=================================================================\n"," embedding (Embedding)       (None, 300, 32)           3200000   \n","                                                                 \n"," conv1d (Conv1D)             (None, 293, 400)          102800    \n","                                                                 \n"," global_max_pooling1d (Glob  (None, 400)               0         \n"," alMaxPooling1D)                                                 \n","                                                                 \n"," dense (Dense)               (None, 512)               205312    \n","                                                                 \n"," dense_1 (Dense)             (None, 5)                 2565      \n","                                                                 \n","=================================================================\n","Total params: 3510677 (13.39 MB)\n","Trainable params: 3510677 (13.39 MB)\n","Non-trainable params: 0 (0.00 Byte)\n","_________________________________________________________________\n","3/3 [==============================] - 0s 32ms/step - loss: 0.8347 - accuracy: 0.7093\n","\n","Model: \"sequential\"\n","_________________________________________________________________\n"," Layer (type)                Output Shape              Param #   \n","=================================================================\n"," embedding (Embedding)       (None, 300, 32)           3200000   \n","                                                                 \n"," conv1d (Conv1D)             (None, 293, 400)          102800    \n","                                                                 \n"," global_max_pooling1d (Glob  (None, 400)               0         \n"," alMaxPooling1D)                                                 \n","                                                                 \n"," dense (Dense)               (None, 512)               205312    \n","                                                                 \n"," dense_1 (Dense)             (None, 5)                 2565      \n","                                                                 \n","=================================================================\n","Total params: 3510677 (13.39 MB)\n","Trainable params: 3510677 (13.39 MB)\n","Non-trainable params: 0 (0.00 Byte)\n","_________________________________________________________________\n","3/3 [==============================] - 0s 35ms/step - loss: 0.8125 - accuracy: 0.7442\n","\n","Model: \"sequential\"\n","_________________________________________________________________\n"," Layer (type)                Output Shape              Param #   \n","=================================================================\n"," embedding (Embedding)       (None, 300, 32)           3200000   \n","                                                                 \n"," conv1d (Conv1D)             (None, 293, 400)          102800    \n","                                                                 \n"," global_max_pooling1d (Glob  (None, 400)               0         \n"," alMaxPooling1D)                                                 \n","                                                                 \n"," dense (Dense)               (None, 512)               205312    \n","                                                                 \n"," dense_1 (Dense)             (None, 5)                 2565      \n","                                                                 \n","=================================================================\n","Total params: 3510677 (13.39 MB)\n","Trainable params: 3510677 (13.39 MB)\n","Non-trainable params: 0 (0.00 Byte)\n","_________________________________________________________________\n","3/3 [==============================] - 0s 48ms/step - loss: 0.8959 - accuracy: 0.6977\n","\n","Model: \"sequential\"\n","_________________________________________________________________\n"," Layer (type)                Output Shape              Param #   \n","=================================================================\n"," embedding (Embedding)       (None, 300, 32)           3200000   \n","                                                                 \n"," conv1d (Conv1D)             (None, 293, 400)          102800    \n","                                                                 \n"," global_max_pooling1d (Glob  (None, 400)               0         \n"," alMaxPooling1D)                                                 \n","                                                                 \n"," dense (Dense)               (None, 512)               205312    \n","                                                                 \n"," dense_1 (Dense)             (None, 5)                 2565      \n","                                                                 \n","=================================================================\n","Total params: 3510677 (13.39 MB)\n","Trainable params: 3510677 (13.39 MB)\n","Non-trainable params: 0 (0.00 Byte)\n","_________________________________________________________________\n","3/3 [==============================] - 1s 52ms/step - loss: 0.9032 - accuracy: 0.7209\n","\n","Model: \"sequential\"\n","_________________________________________________________________\n"," Layer (type)                Output Shape              Param #   \n","=================================================================\n"," embedding (Embedding)       (None, 300, 32)           3200000   \n","                                                                 \n"," conv1d (Conv1D)             (None, 293, 400)          102800    \n","                                                                 \n"," global_max_pooling1d (Glob  (None, 400)               0         \n"," alMaxPooling1D)                                                 \n","                                                                 \n"," dense (Dense)               (None, 512)               205312    \n","                                                                 \n"," dense_1 (Dense)             (None, 5)                 2565      \n","                                                                 \n","=================================================================\n","Total params: 3510677 (13.39 MB)\n","Trainable params: 3510677 (13.39 MB)\n","Non-trainable params: 0 (0.00 Byte)\n","_________________________________________________________________\n","3/3 [==============================] - 0s 49ms/step - loss: 0.8565 - accuracy: 0.7209\n","\n","Model: \"sequential\"\n","_________________________________________________________________\n"," Layer (type)                Output Shape              Param #   \n","=================================================================\n"," embedding (Embedding)       (None, 300, 32)           3200000   \n","                                                                 \n"," conv1d (Conv1D)             (None, 293, 400)          102800    \n","                                                                 \n"," global_max_pooling1d (Glob  (None, 400)               0         \n"," alMaxPooling1D)                                                 \n","                                                                 \n"," dense (Dense)               (None, 512)               205312    \n","                                                                 \n"," dense_1 (Dense)             (None, 5)                 2565      \n","                                                                 \n","=================================================================\n","Total params: 3510677 (13.39 MB)\n","Trainable params: 3510677 (13.39 MB)\n","Non-trainable params: 0 (0.00 Byte)\n","_________________________________________________________________\n","3/3 [==============================] - 1s 64ms/step - loss: 0.8808 - accuracy: 0.7209\n","\n","Model: \"sequential\"\n","_________________________________________________________________\n"," Layer (type)                Output Shape              Param #   \n","=================================================================\n"," embedding (Embedding)       (None, 300, 32)           3200000   \n","                                                                 \n"," conv1d (Conv1D)             (None, 293, 400)          102800    \n","                                                                 \n"," global_max_pooling1d (Glob  (None, 400)               0         \n"," alMaxPooling1D)                                                 \n","                                                                 \n"," dense (Dense)               (None, 512)               205312    \n","                                                                 \n"," dense_1 (Dense)             (None, 5)                 2565      \n","                                                                 \n","=================================================================\n","Total params: 3510677 (13.39 MB)\n","Trainable params: 3510677 (13.39 MB)\n","Non-trainable params: 0 (0.00 Byte)\n","_________________________________________________________________\n","3/3 [==============================] - 1s 54ms/step - loss: 0.9649 - accuracy: 0.5814\n","\n","Model: \"sequential\"\n","_________________________________________________________________\n"," Layer (type)                Output Shape              Param #   \n","=================================================================\n"," embedding (Embedding)       (None, 300, 32)           3200000   \n","                                                                 \n"," conv1d (Conv1D)             (None, 293, 400)          102800    \n","                                                                 \n"," global_max_pooling1d (Glob  (None, 400)               0         \n"," alMaxPooling1D)                                                 \n","                                                                 \n"," dense (Dense)               (None, 512)               205312    \n","                                                                 \n"," dense_1 (Dense)             (None, 5)                 2565      \n","                                                                 \n","=================================================================\n","Total params: 3510677 (13.39 MB)\n","Trainable params: 3510677 (13.39 MB)\n","Non-trainable params: 0 (0.00 Byte)\n","_________________________________________________________________\n","3/3 [==============================] - 1s 54ms/step - loss: 1.0064 - accuracy: 0.5465\n","\n","Model: \"sequential\"\n","_________________________________________________________________\n"," Layer (type)                Output Shape              Param #   \n","=================================================================\n"," embedding (Embedding)       (None, 300, 32)           3200000   \n","                                                                 \n"," conv1d (Conv1D)             (None, 293, 400)          102800    \n","                                                                 \n"," global_max_pooling1d (Glob  (None, 400)               0         \n"," alMaxPooling1D)                                                 \n","                                                                 \n"," dense (Dense)               (None, 512)               205312    \n","                                                                 \n"," dense_1 (Dense)             (None, 5)                 2565      \n","                                                                 \n","=================================================================\n","Total params: 3510677 (13.39 MB)\n","Trainable params: 3510677 (13.39 MB)\n","Non-trainable params: 0 (0.00 Byte)\n","_________________________________________________________________\n","3/3 [==============================] - 0s 32ms/step - loss: 0.9748 - accuracy: 0.5814\n","\n","Model: \"sequential\"\n","_________________________________________________________________\n"," Layer (type)                Output Shape              Param #   \n","=================================================================\n"," embedding (Embedding)       (None, 300, 32)           3200000   \n","                                                                 \n"," conv1d (Conv1D)             (None, 293, 400)          102800    \n","                                                                 \n"," global_max_pooling1d (Glob  (None, 400)               0         \n"," alMaxPooling1D)                                                 \n","                                                                 \n"," dense (Dense)               (None, 512)               205312    \n","                                                                 \n"," dense_1 (Dense)             (None, 5)                 2565      \n","                                                                 \n","=================================================================\n","Total params: 3510677 (13.39 MB)\n","Trainable params: 3510677 (13.39 MB)\n","Non-trainable params: 0 (0.00 Byte)\n","_________________________________________________________________\n","3/3 [==============================] - 0s 35ms/step - loss: 0.9265 - accuracy: 0.7093\n","\n","Model: \"sequential\"\n","_________________________________________________________________\n"," Layer (type)                Output Shape              Param #   \n","=================================================================\n"," embedding (Embedding)       (None, 300, 32)           3200000   \n","                                                                 \n"," conv1d (Conv1D)             (None, 293, 400)          102800    \n","                                                                 \n"," global_max_pooling1d (Glob  (None, 400)               0         \n"," alMaxPooling1D)                                                 \n","                                                                 \n"," dense (Dense)               (None, 512)               205312    \n","                                                                 \n"," dense_1 (Dense)             (None, 5)                 2565      \n","                                                                 \n","=================================================================\n","Total params: 3510677 (13.39 MB)\n","Trainable params: 3510677 (13.39 MB)\n","Non-trainable params: 0 (0.00 Byte)\n","_________________________________________________________________\n","3/3 [==============================] - 0s 32ms/step - loss: 0.9549 - accuracy: 0.5698\n","\n","Model: \"sequential\"\n","_________________________________________________________________\n"," Layer (type)                Output Shape              Param #   \n","=================================================================\n"," embedding (Embedding)       (None, 300, 32)           3200000   \n","                                                                 \n"," conv1d (Conv1D)             (None, 294, 400)          90000     \n","                                                                 \n"," global_max_pooling1d (Glob  (None, 400)               0         \n"," alMaxPooling1D)                                                 \n","                                                                 \n"," dense (Dense)               (None, 448)               179648    \n","                                                                 \n"," dense_1 (Dense)             (None, 5)                 2245      \n","                                                                 \n","=================================================================\n","Total params: 3471893 (13.24 MB)\n","Trainable params: 3471893 (13.24 MB)\n","Non-trainable params: 0 (0.00 Byte)\n","_________________________________________________________________\n","3/3 [==============================] - 0s 32ms/step - loss: 0.8422 - accuracy: 0.7442\n","\n","Model: \"sequential\"\n","_________________________________________________________________\n"," Layer (type)                Output Shape              Param #   \n","=================================================================\n"," embedding (Embedding)       (None, 300, 32)           3200000   \n","                                                                 \n"," conv1d (Conv1D)             (None, 294, 400)          90000     \n","                                                                 \n"," global_max_pooling1d (Glob  (None, 400)               0         \n"," alMaxPooling1D)                                                 \n","                                                                 \n"," dense (Dense)               (None, 448)               179648    \n","                                                                 \n"," dense_1 (Dense)             (None, 5)                 2245      \n","                                                                 \n","=================================================================\n","Total params: 3471893 (13.24 MB)\n","Trainable params: 3471893 (13.24 MB)\n","Non-trainable params: 0 (0.00 Byte)\n","_________________________________________________________________\n","3/3 [==============================] - 0s 31ms/step - loss: 1.0085 - accuracy: 0.5698\n","\n","Model: \"sequential\"\n","_________________________________________________________________\n"," Layer (type)                Output Shape              Param #   \n","=================================================================\n"," embedding (Embedding)       (None, 300, 32)           3200000   \n","                                                                 \n"," conv1d (Conv1D)             (None, 293, 400)          102800    \n","                                                                 \n"," global_max_pooling1d (Glob  (None, 400)               0         \n"," alMaxPooling1D)                                                 \n","                                                                 \n"," dense (Dense)               (None, 480)               192480    \n","                                                                 \n"," dense_1 (Dense)             (None, 5)                 2405      \n","                                                                 \n","=================================================================\n","Total params: 3497685 (13.34 MB)\n","Trainable params: 3497685 (13.34 MB)\n","Non-trainable params: 0 (0.00 Byte)\n","_________________________________________________________________\n","3/3 [==============================] - 0s 35ms/step - loss: 0.9802 - accuracy: 0.5698\n","\n","Model: \"sequential\"\n","_________________________________________________________________\n"," Layer (type)                Output Shape              Param #   \n","=================================================================\n"," embedding (Embedding)       (None, 300, 32)           3200000   \n","                                                                 \n"," conv1d (Conv1D)             (None, 293, 400)          102800    \n","                                                                 \n"," global_max_pooling1d (Glob  (None, 400)               0         \n"," alMaxPooling1D)                                                 \n","                                                                 \n"," dense (Dense)               (None, 512)               205312    \n","                                                                 \n"," dense_1 (Dense)             (None, 5)                 2565      \n","                                                                 \n","=================================================================\n","Total params: 3510677 (13.39 MB)\n","Trainable params: 3510677 (13.39 MB)\n","Non-trainable params: 0 (0.00 Byte)\n","_________________________________________________________________\n","3/3 [==============================] - 0s 32ms/step - loss: 0.8341 - accuracy: 0.7326\n","\n","Model: \"sequential\"\n","_________________________________________________________________\n"," Layer (type)                Output Shape              Param #   \n","=================================================================\n"," embedding (Embedding)       (None, 300, 32)           3200000   \n","                                                                 \n"," conv1d (Conv1D)             (None, 293, 400)          102800    \n","                                                                 \n"," global_max_pooling1d (Glob  (None, 400)               0         \n"," alMaxPooling1D)                                                 \n","                                                                 \n"," dense (Dense)               (None, 512)               205312    \n","                                                                 \n"," dense_1 (Dense)             (None, 5)                 2565      \n","                                                                 \n","=================================================================\n","Total params: 3510677 (13.39 MB)\n","Trainable params: 3510677 (13.39 MB)\n","Non-trainable params: 0 (0.00 Byte)\n","_________________________________________________________________\n","3/3 [==============================] - 0s 34ms/step - loss: 0.8759 - accuracy: 0.7209\n","\n","Model: \"sequential\"\n","_________________________________________________________________\n"," Layer (type)                Output Shape              Param #   \n","=================================================================\n"," embedding (Embedding)       (None, 300, 32)           3200000   \n","                                                                 \n"," conv1d (Conv1D)             (None, 293, 400)          102800    \n","                                                                 \n"," global_max_pooling1d (Glob  (None, 400)               0         \n"," alMaxPooling1D)                                                 \n","                                                                 \n"," dense (Dense)               (None, 512)               205312    \n","                                                                 \n"," dense_1 (Dense)             (None, 5)                 2565      \n","                                                                 \n","=================================================================\n","Total params: 3510677 (13.39 MB)\n","Trainable params: 3510677 (13.39 MB)\n","Non-trainable params: 0 (0.00 Byte)\n","_________________________________________________________________\n","3/3 [==============================] - 0s 33ms/step - loss: 0.9586 - accuracy: 0.5698\n","\n","Model: \"sequential\"\n","_________________________________________________________________\n"," Layer (type)                Output Shape              Param #   \n","=================================================================\n"," embedding (Embedding)       (None, 300, 32)           3200000   \n","                                                                 \n"," conv1d (Conv1D)             (None, 296, 400)          64400     \n","                                                                 \n"," global_max_pooling1d (Glob  (None, 400)               0         \n"," alMaxPooling1D)                                                 \n","                                                                 \n"," dense (Dense)               (None, 512)               205312    \n","                                                                 \n"," dense_1 (Dense)             (None, 5)                 2565      \n","                                                                 \n","=================================================================\n","Total params: 3472277 (13.25 MB)\n","Trainable params: 3472277 (13.25 MB)\n","Non-trainable params: 0 (0.00 Byte)\n","_________________________________________________________________\n","3/3 [==============================] - 0s 24ms/step - loss: 0.8317 - accuracy: 0.7209\n","\n","Model: \"sequential\"\n","_________________________________________________________________\n"," Layer (type)                Output Shape              Param #   \n","=================================================================\n"," embedding (Embedding)       (None, 300, 32)           3200000   \n","                                                                 \n"," conv1d (Conv1D)             (None, 293, 400)          102800    \n","                                                                 \n"," global_max_pooling1d (Glob  (None, 400)               0         \n"," alMaxPooling1D)                                                 \n","                                                                 \n"," dense (Dense)               (None, 512)               205312    \n","                                                                 \n"," dense_1 (Dense)             (None, 5)                 2565      \n","                                                                 \n","=================================================================\n","Total params: 3510677 (13.39 MB)\n","Trainable params: 3510677 (13.39 MB)\n","Non-trainable params: 0 (0.00 Byte)\n","_________________________________________________________________\n","3/3 [==============================] - 0s 35ms/step - loss: 0.9137 - accuracy: 0.7326\n","\n","Model: \"sequential\"\n","_________________________________________________________________\n"," Layer (type)                Output Shape              Param #   \n","=================================================================\n"," embedding (Embedding)       (None, 300, 32)           3200000   \n","                                                                 \n"," conv1d (Conv1D)             (None, 293, 400)          102800    \n","                                                                 \n"," global_max_pooling1d (Glob  (None, 400)               0         \n"," alMaxPooling1D)                                                 \n","                                                                 \n"," dense (Dense)               (None, 512)               205312    \n","                                                                 \n"," dense_1 (Dense)             (None, 5)                 2565      \n","                                                                 \n","=================================================================\n","Total params: 3510677 (13.39 MB)\n","Trainable params: 3510677 (13.39 MB)\n","Non-trainable params: 0 (0.00 Byte)\n","_________________________________________________________________\n","3/3 [==============================] - 0s 37ms/step - loss: 0.9173 - accuracy: 0.6744\n","\n","Model: \"sequential\"\n","_________________________________________________________________\n"," Layer (type)                Output Shape              Param #   \n","=================================================================\n"," embedding (Embedding)       (None, 300, 32)           3200000   \n","                                                                 \n"," conv1d (Conv1D)             (None, 293, 400)          102800    \n","                                                                 \n"," global_max_pooling1d (Glob  (None, 400)               0         \n"," alMaxPooling1D)                                                 \n","                                                                 \n"," dense (Dense)               (None, 512)               205312    \n","                                                                 \n"," dense_1 (Dense)             (None, 5)                 2565      \n","                                                                 \n","=================================================================\n","Total params: 3510677 (13.39 MB)\n","Trainable params: 3510677 (13.39 MB)\n","Non-trainable params: 0 (0.00 Byte)\n","_________________________________________________________________\n","3/3 [==============================] - 0s 34ms/step - loss: 0.9797 - accuracy: 0.6977\n","\n","Model: \"sequential\"\n","_________________________________________________________________\n"," Layer (type)                Output Shape              Param #   \n","=================================================================\n"," embedding (Embedding)       (None, 300, 32)           3200000   \n","                                                                 \n"," conv1d (Conv1D)             (None, 293, 400)          102800    \n","                                                                 \n"," global_max_pooling1d (Glob  (None, 400)               0         \n"," alMaxPooling1D)                                                 \n","                                                                 \n"," dense (Dense)               (None, 512)               205312    \n","                                                                 \n"," dense_1 (Dense)             (None, 5)                 2565      \n","                                                                 \n","=================================================================\n","Total params: 3510677 (13.39 MB)\n","Trainable params: 3510677 (13.39 MB)\n","Non-trainable params: 0 (0.00 Byte)\n","_________________________________________________________________\n","3/3 [==============================] - 0s 35ms/step - loss: 0.9149 - accuracy: 0.7093\n","\n","Model: \"sequential\"\n","_________________________________________________________________\n"," Layer (type)                Output Shape              Param #   \n","=================================================================\n"," embedding (Embedding)       (None, 300, 32)           3200000   \n","                                                                 \n"," conv1d (Conv1D)             (None, 293, 400)          102800    \n","                                                                 \n"," global_max_pooling1d (Glob  (None, 400)               0         \n"," alMaxPooling1D)                                                 \n","                                                                 \n"," dense (Dense)               (None, 512)               205312    \n","                                                                 \n"," dense_1 (Dense)             (None, 5)                 2565      \n","                                                                 \n","=================================================================\n","Total params: 3510677 (13.39 MB)\n","Trainable params: 3510677 (13.39 MB)\n","Non-trainable params: 0 (0.00 Byte)\n","_________________________________________________________________\n","3/3 [==============================] - 0s 34ms/step - loss: 0.8523 - accuracy: 0.7093\n","\n","Model: \"sequential\"\n","_________________________________________________________________\n"," Layer (type)                Output Shape              Param #   \n","=================================================================\n"," embedding (Embedding)       (None, 300, 32)           3200000   \n","                                                                 \n"," conv1d (Conv1D)             (None, 293, 400)          102800    \n","                                                                 \n"," global_max_pooling1d (Glob  (None, 400)               0         \n"," alMaxPooling1D)                                                 \n","                                                                 \n"," dense (Dense)               (None, 512)               205312    \n","                                                                 \n"," dense_1 (Dense)             (None, 5)                 2565      \n","                                                                 \n","=================================================================\n","Total params: 3510677 (13.39 MB)\n","Trainable params: 3510677 (13.39 MB)\n","Non-trainable params: 0 (0.00 Byte)\n","_________________________________________________________________\n","3/3 [==============================] - 0s 34ms/step - loss: 0.8847 - accuracy: 0.7093\n","\n","Model: \"sequential\"\n","_________________________________________________________________\n"," Layer (type)                Output Shape              Param #   \n","=================================================================\n"," embedding (Embedding)       (None, 300, 32)           3200000   \n","                                                                 \n"," conv1d (Conv1D)             (None, 294, 400)          90000     \n","                                                                 \n"," global_max_pooling1d (Glob  (None, 400)               0         \n"," alMaxPooling1D)                                                 \n","                                                                 \n"," dense (Dense)               (None, 448)               179648    \n","                                                                 \n"," dense_1 (Dense)             (None, 5)                 2245      \n","                                                                 \n","=================================================================\n","Total params: 3471893 (13.24 MB)\n","Trainable params: 3471893 (13.24 MB)\n","Non-trainable params: 0 (0.00 Byte)\n","_________________________________________________________________\n","3/3 [==============================] - 0s 33ms/step - loss: 0.9254 - accuracy: 0.5814\n","\n","Model: \"sequential\"\n","_________________________________________________________________\n"," Layer (type)                Output Shape              Param #   \n","=================================================================\n"," embedding (Embedding)       (None, 300, 32)           3200000   \n","                                                                 \n"," conv1d (Conv1D)             (None, 293, 400)          102800    \n","                                                                 \n"," global_max_pooling1d (Glob  (None, 400)               0         \n"," alMaxPooling1D)                                                 \n","                                                                 \n"," dense (Dense)               (None, 512)               205312    \n","                                                                 \n"," dense_1 (Dense)             (None, 5)                 2565      \n","                                                                 \n","=================================================================\n","Total params: 3510677 (13.39 MB)\n","Trainable params: 3510677 (13.39 MB)\n","Non-trainable params: 0 (0.00 Byte)\n","_________________________________________________________________\n","3/3 [==============================] - 0s 32ms/step - loss: 0.8698 - accuracy: 0.7209\n","\n","Model: \"sequential\"\n","_________________________________________________________________\n"," Layer (type)                Output Shape              Param #   \n","=================================================================\n"," embedding (Embedding)       (None, 300, 32)           3200000   \n","                                                                 \n"," conv1d (Conv1D)             (None, 294, 350)          78750     \n","                                                                 \n"," global_max_pooling1d (Glob  (None, 350)               0         \n"," alMaxPooling1D)                                                 \n","                                                                 \n"," dense (Dense)               (None, 512)               179712    \n","                                                                 \n"," dense_1 (Dense)             (None, 5)                 2565      \n","                                                                 \n","=================================================================\n","Total params: 3461027 (13.20 MB)\n","Trainable params: 3461027 (13.20 MB)\n","Non-trainable params: 0 (0.00 Byte)\n","_________________________________________________________________\n","3/3 [==============================] - 0s 30ms/step - loss: 1.1043 - accuracy: 0.4302\n","\n","Model: \"sequential\"\n","_________________________________________________________________\n"," Layer (type)                Output Shape              Param #   \n","=================================================================\n"," embedding (Embedding)       (None, 300, 32)           3200000   \n","                                                                 \n"," conv1d (Conv1D)             (None, 294, 350)          78750     \n","                                                                 \n"," global_max_pooling1d (Glob  (None, 350)               0         \n"," alMaxPooling1D)                                                 \n","                                                                 \n"," dense (Dense)               (None, 512)               179712    \n","                                                                 \n"," dense_1 (Dense)             (None, 5)                 2565      \n","                                                                 \n","=================================================================\n","Total params: 3461027 (13.20 MB)\n","Trainable params: 3461027 (13.20 MB)\n","Non-trainable params: 0 (0.00 Byte)\n","_________________________________________________________________\n","3/3 [==============================] - 0s 30ms/step - loss: 0.9319 - accuracy: 0.7093\n","\n","Model: \"sequential\"\n","_________________________________________________________________\n"," Layer (type)                Output Shape              Param #   \n","=================================================================\n"," embedding (Embedding)       (None, 300, 32)           3200000   \n","                                                                 \n"," conv1d (Conv1D)             (None, 293, 400)          102800    \n","                                                                 \n"," global_max_pooling1d (Glob  (None, 400)               0         \n"," alMaxPooling1D)                                                 \n","                                                                 \n"," dense (Dense)               (None, 512)               205312    \n","                                                                 \n"," dense_1 (Dense)             (None, 5)                 2565      \n","                                                                 \n","=================================================================\n","Total params: 3510677 (13.39 MB)\n","Trainable params: 3510677 (13.39 MB)\n","Non-trainable params: 0 (0.00 Byte)\n","_________________________________________________________________\n","3/3 [==============================] - 1s 61ms/step - loss: 1.0069 - accuracy: 0.5698\n","\n","Model: \"sequential\"\n","_________________________________________________________________\n"," Layer (type)                Output Shape              Param #   \n","=================================================================\n"," embedding (Embedding)       (None, 300, 32)           3200000   \n","                                                                 \n"," conv1d (Conv1D)             (None, 293, 400)          102800    \n","                                                                 \n"," global_max_pooling1d (Glob  (None, 400)               0         \n"," alMaxPooling1D)                                                 \n","                                                                 \n"," dense (Dense)               (None, 512)               205312    \n","                                                                 \n"," dense_1 (Dense)             (None, 5)                 2565      \n","                                                                 \n","=================================================================\n","Total params: 3510677 (13.39 MB)\n","Trainable params: 3510677 (13.39 MB)\n","Non-trainable params: 0 (0.00 Byte)\n","_________________________________________________________________\n","3/3 [==============================] - 0s 51ms/step - loss: 1.0152 - accuracy: 0.5233\n","\n","Model: \"sequential\"\n","_________________________________________________________________\n"," Layer (type)                Output Shape              Param #   \n","=================================================================\n"," embedding (Embedding)       (None, 300, 32)           3200000   \n","                                                                 \n"," conv1d (Conv1D)             (None, 293, 400)          102800    \n","                                                                 \n"," global_max_pooling1d (Glob  (None, 400)               0         \n"," alMaxPooling1D)                                                 \n","                                                                 \n"," dense (Dense)               (None, 512)               205312    \n","                                                                 \n"," dense_1 (Dense)             (None, 5)                 2565      \n","                                                                 \n","=================================================================\n","Total params: 3510677 (13.39 MB)\n","Trainable params: 3510677 (13.39 MB)\n","Non-trainable params: 0 (0.00 Byte)\n","_________________________________________________________________\n","3/3 [==============================] - 1s 56ms/step - loss: 0.9843 - accuracy: 0.6628\n","\n","Model: \"sequential\"\n","_________________________________________________________________\n"," Layer (type)                Output Shape              Param #   \n","=================================================================\n"," embedding (Embedding)       (None, 300, 28)           2800000   \n","                                                                 \n"," conv1d (Conv1D)             (None, 294, 150)          29550     \n","                                                                 \n"," global_max_pooling1d (Glob  (None, 150)               0         \n"," alMaxPooling1D)                                                 \n","                                                                 \n"," dense (Dense)               (None, 480)               72480     \n","                                                                 \n"," dense_1 (Dense)             (None, 5)                 2405      \n","                                                                 \n","=================================================================\n","Total params: 2904435 (11.08 MB)\n","Trainable params: 2904435 (11.08 MB)\n","Non-trainable params: 0 (0.00 Byte)\n","_________________________________________________________________\n","3/3 [==============================] - 0s 26ms/step - loss: 0.8622 - accuracy: 0.7093\n","\n","Model: \"sequential\"\n","_________________________________________________________________\n"," Layer (type)                Output Shape              Param #   \n","=================================================================\n"," embedding (Embedding)       (None, 300, 32)           3200000   \n","                                                                 \n"," conv1d (Conv1D)             (None, 295, 200)          38600     \n","                                                                 \n"," global_max_pooling1d (Glob  (None, 200)               0         \n"," alMaxPooling1D)                                                 \n","                                                                 \n"," dense (Dense)               (None, 512)               102912    \n","                                                                 \n"," dense_1 (Dense)             (None, 5)                 2565      \n","                                                                 \n","=================================================================\n","Total params: 3344077 (12.76 MB)\n","Trainable params: 3344077 (12.76 MB)\n","Non-trainable params: 0 (0.00 Byte)\n","_________________________________________________________________\n","3/3 [==============================] - 0s 25ms/step - loss: 0.8287 - accuracy: 0.7326\n","\n","Model: \"sequential\"\n","_________________________________________________________________\n"," Layer (type)                Output Shape              Param #   \n","=================================================================\n"," embedding (Embedding)       (None, 300, 32)           3200000   \n","                                                                 \n"," conv1d (Conv1D)             (None, 293, 350)          89950     \n","                                                                 \n"," global_max_pooling1d (Glob  (None, 350)               0         \n"," alMaxPooling1D)                                                 \n","                                                                 \n"," dense (Dense)               (None, 448)               157248    \n","                                                                 \n"," dense_1 (Dense)             (None, 5)                 2245      \n","                                                                 \n","=================================================================\n","Total params: 3449443 (13.16 MB)\n","Trainable params: 3449443 (13.16 MB)\n","Non-trainable params: 0 (0.00 Byte)\n","_________________________________________________________________\n","3/3 [==============================] - 1s 49ms/step - loss: 1.1276 - accuracy: 0.4302\n","\n","Model: \"sequential\"\n","_________________________________________________________________\n"," Layer (type)                Output Shape              Param #   \n","=================================================================\n"," embedding (Embedding)       (None, 300, 28)           2800000   \n","                                                                 \n"," conv1d (Conv1D)             (None, 294, 400)          78800     \n","                                                                 \n"," global_max_pooling1d (Glob  (None, 400)               0         \n"," alMaxPooling1D)                                                 \n","                                                                 \n"," dense (Dense)               (None, 384)               153984    \n","                                                                 \n"," dense_1 (Dense)             (None, 5)                 1925      \n","                                                                 \n","=================================================================\n","Total params: 3034709 (11.58 MB)\n","Trainable params: 3034709 (11.58 MB)\n","Non-trainable params: 0 (0.00 Byte)\n","_________________________________________________________________\n","3/3 [==============================] - 0s 30ms/step - loss: 0.8843 - accuracy: 0.7093\n","\n","Model: \"sequential\"\n","_________________________________________________________________\n"," Layer (type)                Output Shape              Param #   \n","=================================================================\n"," embedding (Embedding)       (None, 300, 32)           3200000   \n","                                                                 \n"," conv1d (Conv1D)             (None, 295, 300)          57900     \n","                                                                 \n"," global_max_pooling1d (Glob  (None, 300)               0         \n"," alMaxPooling1D)                                                 \n","                                                                 \n"," dense (Dense)               (None, 416)               125216    \n","                                                                 \n"," dense_1 (Dense)             (None, 5)                 2085      \n","                                                                 \n","=================================================================\n","Total params: 3385201 (12.91 MB)\n","Trainable params: 3385201 (12.91 MB)\n","Non-trainable params: 0 (0.00 Byte)\n","_________________________________________________________________\n","3/3 [==============================] - 0s 22ms/step - loss: 0.8854 - accuracy: 0.5814\n","\n","Model: \"sequential\"\n","_________________________________________________________________\n"," Layer (type)                Output Shape              Param #   \n","=================================================================\n"," embedding (Embedding)       (None, 300, 28)           2800000   \n","                                                                 \n"," conv1d (Conv1D)             (None, 293, 400)          90000     \n","                                                                 \n"," global_max_pooling1d (Glob  (None, 400)               0         \n"," alMaxPooling1D)                                                 \n","                                                                 \n"," dense (Dense)               (None, 512)               205312    \n","                                                                 \n"," dense_1 (Dense)             (None, 5)                 2565      \n","                                                                 \n","=================================================================\n","Total params: 3097877 (11.82 MB)\n","Trainable params: 3097877 (11.82 MB)\n","Non-trainable params: 0 (0.00 Byte)\n","_________________________________________________________________\n","3/3 [==============================] - 0s 31ms/step - loss: 0
…
